hackathon@Beagle/artifacts/pm_stgnn.pt (torch, 4120 bytes, 3 tensors)

0.weight f4 [64, 6]
0	0x3eba17cf	0.3634629
1	0xbddf63f9	-0.1090774
2	0xbd73a7bc	-0.059486136
3	0x3dccc1e1	0.09997917
4	0x3e880a2a	0.26570255
5	0x3ef8f0d1	0.48621228
6	0x3eb48a9b	0.35261998
7	0xbe8b3352	-0.27187592
8	0xbdae6129	-0.085146256
9	0x3d9f08a5	0.07765321
10	0x3d82801b	0.063720904
11	0xbe831c42	-0.25607497
12	0xbde24e93	-0.11050143
13	0xbeb12c16	-0.34603947
14	0xbea01a05	-0.3126985
15	0xbeb93825	-0.36175647
16	0x3edc8351	0.43068936
17	0x3dab8471	0.083748706
18	0x3ec0b8b8	0.3764093
19	0x3ed8b381	0.4232445
20	0x3ea771c7	0.32703993
21	0x3ebffed1	0.37499097
22	0x3e989568	0.29801488
23	0x3d427616	0.047475897
24	0xbe7c6704	-0.24648672
25	0xbe360d95	-0.17778619
26	0x3d28fe7f	0.04125833
27	0x3ed22e5e	0.41051
28	0xbdc49d39	-0.096003
29	0xbe95b2b2	-0.29237896
30	0xbcc90759	-0.024539636
31	0xbedb6e2a	-0.42857486
32	0x3ee1cece	0.44103092
33	0xbec12ef4	-0.37731135
34	0x3ed8f6b1	0.4237571
35	0xbe42f119	-0.19037284
36	0xbec814ac	-0.3907827
37	0xbeb4f86c	-0.3534578
38	0xbe28dc89	-0.16490377
39	0xbec4a734	-0.38408816
40	0x3e185a26	0.14878139
41	0x3ee89fbc	0.45434368
42	0xbea34143	-0.31885728
43	0xbdac14cf	-0.084024064
44	0x3d821ff8	0.06353754
45	0x3cd8a956	0.026447933
46	0xbdf583f6	-0.1198806
47	0x3e532559	0.20619716
48	0xbe3597f0	-0.17733741
49	0xbecafa23	-0.39643964
50	0x3e1be362	0.15223458
51	0xbd0efcb1	-0.034908954
52	0xbe3fa26f	-0.18714307
53	0xbd9448c6	-0.07240443
54	0x3bae746b	0.0053239367
55	0x3eacdb46	0.33761042
56	0xbe758d2c	-0.23979634
57	0xbe08e3b8	-0.13368118
58	0x3db10de2	0.08645226
59	0x3e42f7c9	0.19039835
60	0xbe6f5626	-0.23372707
61	0xbdc914e6	-0.09818439
62	0xbe0037f8	-0.1252135
63	0x3e90bf19	0.28270796
64	0x3e0ce100	0.13757706
65	0xbe856080	-0.26050186
66	0xbe9d905c	-0.307742
67	0x3e872187	0.26392767
68	0xbe755655	-0.23958714
69	0xbf49ce54	-0.78830457
70	0xbeac9dc6	-0.33714122
71	0xbe53ee2c	-0.20696324
72	0xbde35c80	-0.11101627
73	0xbedf86a8	-0.43657422
74	0xbe12d152	-0.14337662
75	0xbd0c3489	-0.03422979
76	0xbe515fc2	-0.20446685
77	0xbd860431	-0.06543768
78	0xbee906cc	-0.45512998
79	0x3de73926	0.11290197
80	0x3de8b011	0.11361707
81	0xbdcd6d88	-0.10030657
82	0xbedcf349	-0.43154362
83	0xbec734dc	-0.38907516
84	0x3eb8ac21	0.36068824
85	0x3eaace61	0.3336058
86	0x3e06ad3e	0.13152024
87	0x3e20c2f3	0.15699367
88	0xbd4fd895	-0.050743658
89	0xbe94363d	-0.2894763
90	0x3e45e52d	0.19325705
91	0x3dc651af	0.09683549
92	0xbe9821bc	-0.29713237
93	0x3e62aa12	0.22135189
94	0x3ed2c954	0.41169226
95	0xbd89c3a5	-0.06726769
96	0xbdbcefed	-0.0922545
97	0xbec0fe4d	-0.37694016
98	0x3ef5f23b	0.4803637
99	0x3c434624	0.011918578
100	0x3edf7137	0.43641064
101	0xbe194288	-0.14966786
102	0xbe2a9d8c	-0.16661662
103	0x3dd0152f	0.101602904
104	0x3e5ef8f0	0.2177465
105	0x3e21aeae	0.15789291
106	0x3dbc8cf7	0.092065744
107	0xbd1988a0	-0.03748381
108	0xbe281e40	-0.1641779
109	0x3e3c7b61	0.1840644
110	0x3ee44e54	0.4459101
111	0x3ed1cbfc	0.4097594
112	0x3f13cfc7	0.5773892
113	0xbe1c64e2	-0.15272859
114	0xbe49947a	-0.19685546
115	0x3c890aa2	0.016728703
116	0x3ebd30b1	0.3695121
117	0xbe84edda	-0.25962716
118	0x3e991a67	0.29902956
119	0xbe73b284	-0.23798567
120	0x3ecac505	0.3960344
121	0x3f5cb685	0.86216
122	0xbee121f0	-0.43971205
123	0x3ec681ee	0.38771003
124	0xbe6a07df	-0.22854565
125	0x3eda2112	0.42603356
126	0x3e971689	0.2950938
127	0xbed50243	-0.41603288
128	0x3ddeb67f	0.10874652
129	0x3e1b263c	0.15151304
130	0x3e618910	0.22024941
131	0x3cf79b0a	0.030225296
132	0xbe4d13f4	-0.20027143
133	0x3d5cc0e8	0.053894907
134	0xbd7764d4	-0.06039889
135	0x3e0be2c5	0.13660724
136	0x3d819c2f	0.06328618
137	0x3dbb8a77	0.091572694
138	0xbee04725	-0.4380428
139	0xbec91940	-0.39277077
140	0x3e032d16	0.12810168
141	0xbbcd8b40	-0.0062727034
142	0xbef999e9	-0.48750237
143	0x3da035f9	0.078227945
144	0x3cd4598a	0.025921602
145	0x3cbd470b	0.023105165
146	0xbcedd766	-0.029033374
147	0x3da1eee8	0.07906896
148	0xbd94e5fa	-0.07270427
149	0xbe38fe75	-0.18065818
150	0x3ddf3f67	0.10900765
151	0xbee69bff	-0.4504089
152	0xbebfec22	-0.37484843
153	0xbe613ff6	-0.21997055
154	0xbe82b990	-0.25532198
155	0xbe704eb7	-0.23467527
156	0x3eaa4b00	0.33260345
157	0x398cffee	0.00026893563
158	0x3e8f4275	0.2798039
159	0xbe32c97c	-0.17459673
160	0xbe737f15	-0.23778947
161	0xbe561a19	-0.20908393
162	0xbd96b5e6	-0.07358913
163	0xbf00b24e	-0.5027207
164	0xbe823eac	-0.2543844
165	0xbd202a04	-0.03910257
166	0xbd9e97e5	-0.07743815
167	0x3f0752dd	0.52860814
168	0xbe4932ab	-0.19648235
169	0x3ecafef7	0.39647648
170	0x3dd087e1	0.10182167
171	0xbe434fb0	-0.19073367
172	0xbe28883b	-0.16458218
173	0x3e9b548a	0.30337936
174	0xbe41e78b	-0.18935983
175	0x3e23cc28	0.15995848
176	0x3e74695b	0.23868315
177	0x3e8dceca	0.2769683
178	0x3dc2488a	0.09486492
179	0xbdb5d5cb	-0.088786684
180	0x3eaa365e	0.33244604
181	0x3ea61902	0.32440954
182	0xbe9c207b	-0.3049353
183	0x3e439762	0.19100717
184	0xbe98f7b8	-0.29876494
185	0xbd988287	-0.07446771
186	0xbec391ca	-0.38197166
187	0xbea6e960	-0.32599926
188	0xbdf3dcbe	-0.119073376
189	0x3e9325fe	0.28739923
190	0x3ddf2efb	0.10897633
191	0x3d08450b	0.03326897
192	0xbed67ff4	-0.41894495
193	0x3edac83b	0.4273089
194	0x3e8c37df	0.27386376
195	0xbe88fe7d	-0.2675666
196	0xbeb40d18	-0.3516624
197	0x3e55fec0	0.2089796
198	0xbe4daeaa	-0.2008616
199	0xbf072dab	-0.5280406
200	0xbd9e4067	-0.077271275
201	0xbdf1b8f9	-0.11802859
202	0x3da3ad2a	0.07992013
203	0x3e0f5c44	0.1400004
204	0xbe88380e	-0.26605266
205	0x3e90c510	0.28275347
206	0x3e58b0eb	0.21161239
207	0xbe931e92	-0.2873426
208	0x3ec5601b	0.38549885
209	0x3e9f54ae	0.31119293
210	0x3ed4e0ec	0.41577852
211	0x3e3db983	0.18527798
212	0x3bbcacf3	0.005757922
213	0x3e832f29	0.25621918
214	0x3ece4ef1	0.40294603
215	0xbe6793aa	-0.22614923
216	0xbdc897a5	-0.09794549
217	0x3db138ce	0.08653413
218	0x3e5cf1ba	0.21576586
219	0x3df02ecf	0.11727678
220	0xbe39111d	-0.18072934
221	0x3d1dece4	0.038555995
222	0x3e663ae3	0.22483401
223	0x3f09d172	0.53835213
224	0x3e08cd52	0.13359573
225	0xbe7da8ec	-0.2477147
226	0x3c790837	0.0151997125
227	0xbe330974	-0.17484075
228	0xbe46584b	-0.19369619
229	0x3e4b85ef	0.1987531
230	0xbe9e5bd0	-0.30929422
231	0x3e91c11d	0.28467646
232	0x3eaa3d82	0.33250052
233	0xbe264dcf	-0.16240619
234	0xbe29a458	-0.16566598
235	0x3d977968	0.07396203
236	0x3cc96af4	0.024587132
237	0xbe4eb6fa	-0.20186988
238	0x3da9d339	0.08292241
239	0xbe5827a3	-0.2110887
240	0xbc99109e	-0.018684682
241	0xbea04969	-0.31306008
242	0x3e425e0e	0.18981192
243	0xbd130140	-0.035889864
244	0xbe876983	-0.26447687
245	0x3d2b82c5	0.04187276
246	0xbd890b41	-0.066916
247	0x3e6fa40a	0.2340242
248	0x3c925c13	0.01786617
249	0x3eba13da	0.3634327
250	0xbd4ab3a8	-0.04948774
251	0xbe774a1f	-0.24149369
252	0xbc7d4d74	-0.015460361
253	0xbeb47668	-0.35246587
254	0xbebc9bff	-0.36837766
255	0xbe8580ef	-0.2607493

0.bias f4 [64]
0	0x3eb72f6f	0.35778376
1	0x3f494009	0.78613335
2	0xbd1cf8c4	-0.03832318
3	0x3e60e7ac	0.21963376
4	0x3ece530f	0.40297744
5	0x3efba10b	0.49146304
6	0x3f090cbe	0.5353507
7	0x3f68ac4d	0.9088791
8	0x3f537e21	0.8261433
9	0x3f128ea6	0.57248914
10	0x3f2d519e	0.6770266
11	0xbe42d6cd	-0.19027252
12	0x3f58d05d	0.8469294
13	0x3d464f08	0.048415214
14	0x3f02d4f6	0.511062
15	0x3f3361b5	0.70070964
16	0xbec75259	-0.38930014
17	0x3f2f9530	0.6858702
18	0xbee20f67	-0.44152376
19	0xbe4becf4	-0.19914609
20	0xbedd96a8	-0.43279004
21	0x3ed9afba	0.4251688
22	0x3dd136e1	0.102155454
23	0x3e0f97f2	0.14022806
24	0x3f32a194	0.697778
25	0x3f069364	0.5256865
26	0x3e3c4acf	0.18387912
27	0x3cbf9828	0.023387983
28	0x3f69ee36	0.91379106
29	0x3f5794eb	0.84211606
30	0x3f0eaacb	0.5572936
31	0x3f7e9b37	0.9945559
32	0x3edcce73	0.43126258
33	0x3eb54d19	0.35410383
34	0x3ec99c45	0.39377037
35	0x3edaf458	0.42764544
36	0x3ea1b533	0.31583557
37	0xbc919b43	-0.01777423
38	0x3f21bcd2	0.6317874
39	0x3e9fcc85	0.31210724
40	0x3f461077	0.77368873
41	0x3f742b4c	0.95378566
42	0xbe608293	-0.2192481
43	0x3f481d6a	0.7816988
44	0x3f483cbb	0.7821767
45	0x3f79efa5	0.97631294
46	0x3f58e7a0	0.8472843
47	0x3f2f5a27	0.68496937
48	0x3f2e53ed	0.6809681
49	0x3f6bef34	0.9216187
50	0x3e8ed9cf	0.2790055
51	0x3ec85e1d	0.39134303
52	0x3f1f3bc6	0.6220058
53	0x3eeeb0d4	0.46619284
54	0x3e7b1489	0.24519552
55	0x3dcde0f5	0.10052673
56	0x3f1ce46f	0.6128606
57	0xbeb83c4a	-0.35983497
58	0x3f51ebec	0.82000613
59	0x3ecae870	0.3963046
60	0x3f6c140b	0.92218083
61	0x3f13e344	0.57768655
62	0x3f3829c8	0.71938753
63	0xbec15b20	-0.37764835

2.weight f4 [1, 64]
0	0x3e85a54e	0.2610268
1	0x3eda583a	0.42645437
2	0xbd8c410c	-0.06848344
3	0x3e3c2c6d	0.18376322
4	0x3e026ecc	0.12737578
5	0x3e8d1300	0.27553558
6	0x3e9fd97e	0.3122062
7	0x3ebd0b50	0.36922693
8	0x3eb9f743	0.36321458
9	0x3e69ec52	0.22844055
10	0x3e8dca0f	0.2769322
11	0xbecf338d	-0.40469018
12	0x3e92bddb	0.28660473
13	0xbd245c42	-0.040127046
14	0x3e72dee0	0.23717833
15	0x3e5adbbd	0.21372886
16	0xbe7d60d5	-0.2474397
17	0x3e6726a5	0.22573335
18	0xbe9b5683	-0.3033944
19	0xbdc005be	-0.09376095
20	0xbec1a953	-0.37824497
21	0x3e5c92ec	0.21540421
22	0x3d18f6d4	0.03734477
23	0x3dd73277	0.10507672
24	0x3e36a535	0.17836459
25	0x3e4ca5e7	0.19985162
26	0x3d3b7a08	0.045770675
27	0x3e545621	0.2073598
28	0x3f133c66	0.57514036
29	0x3e969992	0.2941404
30	0x3e3c578f	0.18392776
31	0x3eaa1f67	0.33227083
32	0x3e2ec55e	0.17067477
33	0x3e42978d	0.19003125
34	0x3e647844	0.22311503
35	0x3e71b61c	0.23604625
36	0x3dd4250d	0.103586294
37	0xbdb2b03d	-0.08725021
38	0x3ea85a7c	0.32881534
39	0x3d08a911	0.03336436
40	0x3e90d666	0.28288573
41	0x3ebaf220	0.36512852
42	0xbde9a282	-0.11407949
43	0x3e491178	0.1963557
44	0x3ea54847	0.32281706
45	0x3e9b73af	0.30361697
46	0x3ea02409	0.31277493
47	0x3e9c8dfc	0.30577075
48	0x3ead1200	0.33802795
49	0x3eb244cc	0.34818113
50	0x3e12728c	0.14301509
51	0x3e79155d	0.24324556
52	0x3e89f10c	0.26941717
53	0x3e7a38ad	0.24435683
54	0x3d632aab	0.055460613
55	0x3c838244	0.016053326
56	0x3e5dcf3f	0.2166109
57	0xbe04eb49	-0.12980379
58	0x3eb64aea	0.3560403
59	0x3e9fd349	0.31215885
60	0x3e6e38ca	0.23263851
61	0x3e45a202	0.19300082
62	0x3e9b0f37	0.30285046
63	0xbebe1461	-0.37124923
